model/keypoint_classifier/keypoint_classifier.tflite (tflite, 14544 bytes, 8 tensors)

sequential_3/dense_15/BiasAdd/ReadVariableOp f4 [2]
0	0x3cd5e681	0.02611089
1	0xbcd5e67d	-0.026110882

sequential_3/dense_14/BiasAdd/ReadVariableOp f4 [16]
0	0x3cc9f90b	0.024654886
1	0x3c911390	0.017709523
2	0x3d4f187e	0.050560467
3	0x3e13011f	0.14355896
4	0x3daf0393	0.085456036
5	0x3dacd1b1	0.08438433
6	0x3d214062	0.03936804
7	0x3e0f2f1d	0.13982816
8	0x3e0ac744	0.13552576
9	0x3dbce938	0.092241704
10	0x3e201419	0.15632667
11	0x3e2678df	0.16257046
12	0x3d585cb9	0.052822802
13	0x3da7790c	0.08177385
14	0x3e0162c0	0.12635326
15	0x3db236c3	0.08701851

sequential_3/dense_13/BiasAdd/ReadVariableOp f4 [32]
0	0xbd2211cf	-0.039567765
1	0xbcc0e85a	-0.023548294
2	0x3d6bb4e4	0.057545558
3	0x3d63f5a9	0.0556542
4	0x3ca651b2	0.020302627
5	0x3d7eba71	0.062189523
6	0xbe40cf10	-0.18828988
7	0x3d98d599	0.074626155
8	0xbd9f06d7	-0.077649765
9	0x3d743f94	0.059630945
10	0x3d9da507	0.07697492
11	0xbdd3e8fa	-0.10347171
12	0x3cfb8b66	0.030706119
13	0x3cd7883b	0.026310077
14	0x3c74ee09	0.01494933
15	0x3db71b45	0.08940748
16	0xbc726e36	-0.014796784
17	0x3d1cae61	0.03825224
18	0x3db5babb	0.08873507
19	0xbc93c9f2	-0.018040631
20	0xbd7e9248	-0.062151223
21	0x3db7121d	0.08939002
22	0x3c8f3ea7	0.01748593
23	0x3df27dee	0.118404254
24	0xbd57f2df	-0.052721854
25	0xbbd281bb	-0.0064241565
26	0xbc8ef381	-0.017450096
27	0xbc84bfbc	-0.016204707
28	0x3bca6756	0.0061768694
29	0x3af90b54	0.0019000568
30	0xbd91a278	-0.071110666
31	0xbd91cc84	-0.071190864

sequential_3/dense_12/BiasAdd/ReadVariableOp f4 [32]
0	0xbe5d22cc	-0.21595305
1	0xbea1a501	-0.315712
2	0xbe5aaa3e	-0.21354005
3	0xbe5ca417	-0.2154697
4	0xbea5a6b7	-0.32353756
5	0xbeb38aaf	-0.35066745
6	0xbe7f35bb	-0.2492284
7	0xbe8696a9	-0.2628682
8	0xbe0da47c	-0.13832277
9	0xbea711bb	-0.32630715
10	0xbe46c828	-0.19412291
11	0xbe83bc67	-0.25729677
12	0xbe48a128	-0.19592726
13	0xbe9dd0ce	-0.30823368
14	0xbe90c91b	-0.2827843
15	0xbe3a427c	-0.18189424
16	0xbe350c6a	-0.17680517
17	0xbe86eda5	-0.26353183
18	0xbe936d2f	-0.28794238
19	0xbe70f779	-0.23531903
20	0x3d92e605	0.07172779
21	0xbe5d6763	-0.2162147
22	0xbe1a7a5d	-0.1508574
23	0xbe9f7113	-0.31140956
24	0xbe829b2b	-0.2550901
25	0xbe4ffa09	-0.20310225
26	0xbe9f8133	-0.3115326
27	0xbe92aee2	-0.2864905
28	0xbe24eaae	-0.16105148
29	0xbe3f8122	-0.18701604
30	0xbea1e755	-0.31621805
31	0xbe5a2f28	-0.21307051

sequential_3/dense_12/MatMul f4 [32, 42]
0	0xbd8098ee	-0.06279169
1	0xbe5eea87	-0.21769153
2	0xbe8cb6ef	-0.27483317
3	0xbe7e97a1	-0.2486253
4	0xbe37a900	-0.17935562
5	0x3db30e84	0.08743003
6	0xbe781931	-0.2422836
7	0xbdcc974d	-0.09989796
8	0x3cad246b	0.02113553
9	0xbe0626d2	-0.13100746
10	0xbbf85ae1	-0.007579193
11	0xbdd062e9	-0.101751156
12	0xbe19b700	-0.15011215
13	0xbe070344	-0.1318484
14	0x3d61981c	0.055076703
15	0x3bbe7d64	0.0058132876
16	0x3e5256e7	0.20540963
17	0xbdaa9ca9	-0.08330662
18	0xbdd5f47b	-0.104470216
19	0x3e6cb7b1	0.23116948
20	0x3e0feb79	0.1405467
21	0x3d6a15e5	0.057149787
22	0xbe0553cb	-0.13020246
23	0x3e1b7574	0.15181524
24	0x3b25f330	0.0025321953
25	0x3eef504a	0.46740943
26	0xbe665d5a	-0.22496548
27	0xbb961c9f	-0.0045810486
28	0xbe002eba	-0.12517825
29	0x3e159fc2	0.14611724
30	0x3e80382a	0.2504285
31	0xbdc60fd4	-0.09670988
32	0x3ead1fc9	0.33813313
33	0x3f0159a6	0.5052742
34	0xbe864b91	-0.26229528
35	0x3d5e3020	0.054245114
36	0xbd3c2e49	-0.04594258
37	0xbe4d87fe	-0.20071408
38	0x3e3eb300	0.1862297
39	0x3d8a26f3	0.0674571
40	0x3eaa2934	0.3323456
41	0x3ef22e58	0.47300982
42	0x3e209ee0	0.15685606
43	0x3e8173d9	0.25283697
44	0x3dcc9f0e	0.09991275
45	0xbe7b503c	-0.24542326
46	0x3e62dcd4	0.22154552
47	0xbb706181	-0.003667921
48	0x3dcb39cb	0.099231325
49	0x3e8db966	0.2768051
50	0x3e8adc99	0.27121428
51	0xbe32e7df	-0.17471264
52	0x3ebd1587	0.36930487
53	0x3e587aa5	0.21140535
54	0x3e31c822	0.17361501
55	0xbe15f84e	-0.14645502
56	0xbdf971a9	-0.12179882
57	0x3e1140e6	0.14184913
58	0xbe7da830	-0.2477119
59	0xbd695aff	-0.056971546
60	0x3d937264	0.07199553
61	0x3d4264b3	0.047459316
62	0x3e03e7be	0.12881371
63	0x3e87e989	0.2654536
64	0xbdfb1ce8	-0.12261373
65	0xbde8a468	-0.11359483
66	0xbe2b0a9a	-0.16703263
67	0x3db763b8	0.08954567
68	0x3e5ad6fe	0.21371076
69	0xbe0db9a9	-0.13840355
70	0x3e7c9a17	0.24668156
71	0x3dec640a	0.115425184
72	0xbe19371b	-0.14962427
73	0xbdae8f95	-0.0852348
74	0xbe5db64e	-0.21651575
75	0xbc5b9e25	-0.013404404
76	0x3f0557c4	0.52087045
77	0x3d7e6d71	0.06211609
78	0x3e38e04a	0.1805431
79	0x3df61f80	0.12017727
80	0x3d357a5c	0.044306144
81	0x3e01c58f	0.12673019
82	0xbdd1c248	-0.10242134
83	0xbdf42ddb	-0.11922809
84	0xbe87c94b	-0.26520762
85	0xbe0bf5e8	-0.13668025
86	0xbd9bbdf4	-0.0760459
87	0xbd9253a0	-0.071448565
88	0xbe1985f7	-0.1499251
89	0x3d272407	0.040805843
90	0xbdfda584	-0.12385085
91	0x3c9c28f8	0.019062504
92	0xbe69bb07	-0.22825252
93	0x3e21cd14	0.15800887
94	0x3d3391dc	0.043840274
95	0x3dba12b6	0.090856
96	0xbbb8c1e2	-0.005638347
97	0x3e32cb28	0.1746031
98	0x3d489689	0.048971687
99	0x3d72340b	0.059131663
100	0x3e043bd9	0.12913455
101	0xbdfb6d92	-0.12276758
102	0x3dc7bb38	0.09752506
103	0xbc43b86c	-0.011945825
104	0xbc29100f	-0.01031877
105	0xbd8e97ca	-0.06962545
106	0x3de9ff97	0.11425703
107	0x3ca3e562	0.02000684
108	0x3d576ed3	0.052595925
109	0xbe451446	-0.19246015
110	0xbd3120e8	-0.043244272
111	0x3dd90884	0.10597327
112	0xbe312355	-0.17298634
113	0x3e5c1680	0.21492958
114	0x3e5b6cfc	0.21428293
115	0xbe8ba631	-0.2727523
116	0x3ee38cdb	0.44443402
117	0xbeec2ba2	-0.4612704
118	0xbde927d2	-0.11384548
119	0x3e47e73b	0.19521801
120	0xbe0884b7	-0.13331877
121	0x3d58c593	0.052922796
122	0x3e4ea57e	0.20180318
123	0x3d870195	0.065920986
124	0x3d1e9d6f	0.03872436
125	0xbdd80a1c	-0.10548803
126	0x3d05dfe8	0.032684237
127	0xbe0fd2a3	-0.14045195
128	0xbe512fa1	-0.20428325
129	0x3da1a67f	0.07893085
130	0x3d43123d	0.047624815
131	0x3bf4bb55	0.007468621
132	0xbe4a868d	-0.1977789
133	0x3d906344	0.070501834
134	0xbe4ff1cb	-0.2030708
135	0x3d7486a2	0.05969871
136	0x3d6efb1d	0.05834495
137	0xbd7f34ac	-0.06230609
138	0x3d99bcbf	0.075067036
139	0x3dfaf3bb	0.12253519
140	0x3dd82e1c	0.1055567
141	0xbb437ebb	-0.0029830176
142	0x3e030ba0	0.12797403
143	0x3dfe98eb	0.124315105
144	0x3d0bac08	0.03409961
145	0x3dc4d873	0.09611597
146	0xbdc76409	-0.09735877
147	0x3d473640	0.04863572
148	0x3e2a8bf9	0.16654958
149	0xbe8f9683	-0.2804452
150	0x3e5f1bf3	0.21788006
151	0x3d44e3d5	0.04806884
152	0x3bed4e1d	0.007241978
153	0x3e2f36f2	0.17110804
154	0xbd09dccb	-0.03365783
155	0x3c68c05d	0.014206019
156	0x3d27693e	0.04087185
157	0xbdf116ba	-0.11771913
158	0x3dcbf1fb	0.099582635
159	0xbf28bfd1	-0.6591769
160	0xbd60c2ee	-0.0548734
161	0x3e459bb5	0.19297679
162	0xbdd740d8	-0.10510415
163	0x3d4049a0	0.046945214
164	0xbe18f968	-0.14938891
165	0x3df49554	0.119425446
166	0x3e8a20b5	0.26978078
167	0xbdaee3cd	-0.08539543
168	0x3e09b3ac	0.13447446
169	0x3d294098	0.041321367
170	0x3de4dc58	0.1117484
171	0x3d4cb171	0.04997391
172	0x3e805381	0.25063708
173	0x3e939e1c	0.28831565
174	0x3df45eb5	0.119321264
175	0xbdb9553e	-0.09049462
176	0x3c886373	0.016648984
177	0xbe5bf65c	-0.21480697
178	0x3ebb5622	0.36589152
179	0x3ec87c26	0.39157218
180	0x3c0816c0	0.008306205
181	0x3e596dcb	0.21233289
182	0x3cafb6fa	0.021449555
183	0x3d844eb9	0.06460328
184	0xbe0e7dfc	-0.13915247
185	0xbcfee325	-0.03111417
186	0x3ee59102	0.44837195
187	0x3ea85759	0.3287914
188	0x3e3b3a23	0.18283896
189	0x3df1563e	0.117840275
190	0xbcfe231b	-0.031022599
191	0xbd9fcbb6	-0.07802527
192	0xbe63c60b	-0.22243516
193	0xbdca6363	-0.09882238
194	0x3e17215d	0.14758821
195	0xbd25a84a	-0.040443696
196	0xbe2d3191	-0.1691344
197	0x3c2c3683	0.0105110435
198	0xbd1049e8	-0.035226732
199	0xbd186c1b	-0.037212472
200	0xbe361072	-0.17779711
201	0x3bf5dbcb	0.007503008
202	0xbd07d182	-0.033158787
203	0x3e8bf065	0.27331844
204	0x3e9b6556	0.3035075
205	0xbda603ea	-0.08106215
206	0xbdff2dc0	-0.12459898
207	0x3cb335ec	0.021876298
208	0xbc6729c5	-0.01410908
209	0xbd249a2c	-0.040186092
210	0xbe8df80b	-0.27728304
211	0xbd6d2070	-0.057892263
212	0xbe1cacf1	-0.15300347
213	0xbe9c1e90	-0.30492067
214	0xbe0f5fbd	-0.14001365
215	0xbd102124	-0.035187855
216	0xbe2749bd	-0.16336723
217	0xbd004af9	-0.0313215
218	0x3e777ec4	0.24169451
219	0xbe449785	-0.19198425
220	0xbed3ea54	-0.41389716
221	0xbe11a1ba	-0.1422185
222	0x3d2b3081	0.041794304
223	0x3e380a76	0.1797274
224	0x3b064ed3	0.002049376
225	0x3d4980a8	0.04919496
226	0x3dea728e	0.11447631
227	0x3e0c99d8	0.13730562
228	0xbe0a19d8	-0.13486421
229	0xbe107c11	-0.14109828
230	0x3d87283a	0.065994695
231	0x3cff64ae	0.031175938
232	0x3d1ce76a	0.03830663
233	0x3db67de9	0.08910734
234	0x3df1933e	0.11795662
235	0x3dd28c7d	0.10280702
236	0xbee7335f	-0.4515638
237	0xbe8296a2	-0.2550555
238	0xbd23148a	-0.03981451
239	0xbe2842c5	-0.1643172
240	0x3d5340b6	0.051575385
241	0x3e19d062	0.15020898
242	0x3e19580e	0.14974996
243	0x3d921b3f	0.07134103
244	0xbece7f34	-0.40331423
245	0xbe909b29	-0.28243378
246	0xbe39d5a0	-0.18147898
247	0xbe5c29c7	-0.21500312
248	0x3ddd7c7f	0.10814761
249	0xbdbc9d05	-0.092096366
250	0x3e0ac630	0.13552165
251	0x3de842a0	0.11340833
252	0x3ded9d3c	0.11602256
253	0x3e815297	0.25258324
254	0xbe40aed1	-0.18816687
255	0xbd8d0734	-0.068861395

sequential_3/dense_13/MatMul f4 [32, 32]
0	0xbe98796a	-0.29780132
1	0xbe63525a	-0.22199383
2	0xbe4bba30	-0.19895244
3	0xbe02dc31	-0.12779309
4	0xbe0a40ff	-0.13501357
5	0x3ea7bc24	0.32760727
6	0xbe98267e	-0.29716867
7	0xbd21326c	-0.039354727
8	0x3e15fb6e	0.14646694
9	0x3ea45859	0.32098654
10	0xbe1c6ea1	-0.15276577
11	0x3e9ac043	0.3022481
12	0xbdfab164	-0.12240866
13	0x3e95fc83	0.29294214
14	0x3ce1d688	0.027568117
15	0xbd9c7768	-0.076399624
16	0xbcf732fd	-0.03017568
17	0x3e670e65	0.22564085
18	0x3e6cdbb3	0.23130684
19	0x3eb3944d	0.35074082
20	0x3d5f0581	0.05444861
21	0x3d9eb282	0.077488914
22	0xbec3a99b	-0.38215336
23	0x3e25f2d0	0.16205907
24	0xbd899933	-0.067186736
25	0xbea26395	-0.317166
26	0x3e5a36f7	0.2131003
27	0x3df7ebd1	0.12105525
28	0xbe2aca21	-0.16678669
29	0xbe62819a	-0.22119752
30	0x3e07ff16	0.13280901
31	0x3ebaf28b	0.3651317
32	0xbdd95d82	-0.10613538
33	0xbcd96bfe	-0.026540753
34	0xbe19a9e8	-0.1500622
35	0xbe872f89	-0.26403454
36	0xbd531f3e	-0.051543467
37	0x3d90e176	0.07074253
38	0xbe1a6651	-0.15078093
39	0xbe9db33e	-0.30800813
40	0x3ea8d3eb	0.3297418
41	0x3e70b2e6	0.23505744
42	0xbe7286b8	-0.23684204
43	0xbe278b1b	-0.16361658
44	0x3ca56f4e	0.020194676
45	0xbdd25cc9	-0.102716036
46	0x3ed24119	0.4106529
47	0xbe5407d8	-0.20706117
48	0x3e2e3068	0.17010653
49	0x3cc2b541	0.02376807
50	0x3ecf2bb4	0.4046303
51	0xbe2e4f48	-0.17022431
52	0xbea6e0f5	-0.32593504
53	0xbe42bb77	-0.19016825
54	0xbe2959f3	-0.16538219
55	0x3c51d8c4	0.012808029
56	0xbe3f5b3a	-0.18687144
57	0xbdb4a067	-0.08819657
58	0xbdff2913	-0.12459006
59	0x3e459ea5	0.192988
60	0xbe3db396	-0.18525538
61	0xbe75c8b7	-0.24002348
62	0x3eaf5134	0.3424164
63	0xbd911ddb	-0.070857726
64	0x3e9b7d0c	0.3036884
65	0xbe86b516	-0.26310033
66	0x3ebe9542	0.3722325
67	0x3e1a0aa9	0.15043129
68	0xbe485525	-0.1956373
69	0xbe754e91	-0.23955752
70	0x3df9dbb4	0.12200108
71	0xbe903070	-0.28161955
72	0xbe73bd2f	-0.23802637
73	0xbdd99503	-0.10624125
74	0x3df340d2	0.11877598
75	0xbe629c17	-0.22129856
76	0x3eb84758	0.3599193
77	0xbd72bbf4	-0.059261277
78	0xbe3349c9	-0.17508616
79	0x3e4f0e4b	0.20220296
80	0xbdc20cde	-0.094751105
81	0xbc673d0d	-0.014113677
82	0xbdd573a7	-0.104224496
83	0xbe6d7107	-0.23187648
84	0x3e843572	0.25822026
85	0xbe808548	-0.25101686
86	0x3e7873aa	0.24262872
87	0x3dbf7f41	0.09350444
88	0x3d4a6b5a	0.049418785
89	0x3e87829f	0.26466843
90	0xbdc340c3	-0.09533837
91	0x3a377686	0.00069985574
92	0x3e46456a	0.19362417
93	0x3e094cc7	0.13408194
94	0x39dc060e	0.0004196618
95	0x3d928a0d	0.07155237
96	0x3b100be1	0.0021979737
97	0x3e24ccb1	0.16093709
98	0xbec7b6c0	-0.39006615
99	0x3e0614d9	0.1309389
100	0xbe6ab4bf	-0.22920512
101	0x3d5d4237	0.054018226
102	0xbe99677e	-0.2996177
103	0x3c2a4983	0.010393503
104	0x3e1a6760	0.15078497
105	0x3e6e03c4	0.23243624
106	0xbeaa8ba4	-0.33309662
107	0x3eaa5f71	0.3327594
108	0x3e8dbfb8	0.27685332
109	0x3dddfb2f	0.10838925
110	0x3de4669b	0.11152383
111	0xbeb454d6	-0.35220975
112	0x3cf98218	0.030457541
113	0xbe4e0450	-0.20118833
114	0xbe208099	-0.15674056
115	0xbd67939d	-0.05653726
116	0xbe5a76e1	-0.21334411
117	0xbe8d3327	-0.2757809
118	0x3df75656	0.12077014
119	0xbe80aa15	-0.25129762
120	0xbe2b4416	-0.16725191
121	0x3ddcbec4	0.10778573
122	0x3dcb6a68	0.09932405
123	0xbde5f06d	-0.11227498
124	0x3eba5d96	0.36399525
125	0xbe58943b	-0.21150295
126	0x3dfa9462	0.12235333
127	0xbcdc4363	-0.026887601
128	0x3dae1bd6	0.08501403
129	0x3d22dd8c	0.039762065
130	0x3b72ef8e	0.0037069055
131	0xbdfa6eb3	-0.122281455
132	0xbd5fef25	-0.054671425
133	0xbddf8e94	-0.109158665
134	0xbea7e44d	-0.32791367
135	0x3ea597a9	0.3234227
136	0x3d819b2a	0.06328423
137	0xbe26c153	-0.16284685
138	0xbe9c5ebf	-0.30541036
139	0xbda40eec	-0.080106586
140	0x3e26840b	0.16261308
141	0x3ba81fa4	0.005130725
142	0xbdbc118d	-0.09183035
143	0x3e1b8006	0.15185556
144	0xbd8d9630	-0.069134116
145	0xbd8b8085	-0.068116225
146	0xbe1d1bf1	-0.1534269
147	0xbe4706fd	-0.1943626
148	0xbe1ad2e3	-0.1511951
149	0xbe1e8e87	-0.15484057
150	0x3eca47f4	0.3950802
151	0xbe1eb587	-0.15498935
152	0x3e7757e7	0.24154626
153	0xbde72c70	-0.11287773
154	0xbde2df64	-0.11077765
155	0xbd514f78	-0.051101178
156	0xbdedcfcf	-0.11611902
157	0x3e604725	0.2190214
158	0xbcee2fcd	-0.029075528
159	0xbd62ce67	-0.055372622
160	0x3ed46522	0.41483408
161	0xbd9107aa	-0.0708154
162	0xbea12c6c	-0.31479204
163	0x3e09e170	0.13464904
164	0xbe78f6fd	-0.24312969
165	0xbe91b605	-0.28459182
166	0xbdd963ca	-0.106147364
167	0xba49fc37	-0.00077051244
168	0xbdd3a823	-0.10334804
169	0xbd48dcb1	-0.049038593
170	0xbe92863c	-0.28618038
171	0xbe55f69c	-0.20894855
172	0x3e95d7e3	0.2926627
173	0xbd3a9266	-0.045549773
174	0xbe796a3c	-0.24356931
175	0x3eb99c76	0.36252183
176	0xbe4b4276	-0.19849572
177	0x3d793cee	0.060849123
178	0xbe3664dd	-0.17811914
179	0xbe4cb66e	-0.19991466
180	0x3e4ce341	0.20008565
181	0x3da1c09f	0.07898068
182	0x3dd1ee94	0.10250583
183	0xbe23e5a7	-0.16005574
184	0x3ebcb2e9	0.36855248
185	0xbe5c4b3f	-0.21513079
186	0xbc4e3b7c	-0.012587424
187	0xbdba4f8a	-0.09097202
188	0xbe3075d1	-0.17232443
189	0xbe78816a	-0.24268118
190	0xbc9b82e0	-0.018983305
191	0xbd626965	-0.055276293
192	0x3d7002dc	0.058596477
193	0xbe8cecc3	-0.27524385
194	0xbddaee79	-0.10690016
195	0x3dafa81c	0.08576986
196	0x3eb8a4be	0.36063188
197	0xbd620e5f	-0.055189487
198	0x3c926eb9	0.017875062
199	0xbe1e6dab	-0.15471523
200	0x3e57553b	0.21028607
201	0xbe850458	-0.25979877
202	0xbe5b85fd	-0.21437831
203	0x3d0388a5	0.032112736
204	0x3cea8c48	0.028631344
205	0xbe6ae1d9	-0.22937717
206	0x3e2a36f1	0.16622521
207	0x3e238cb1	0.15971638
208	0x3e862083	0.2619668
209	0xbdc3b6ed	-0.09556375
210	0x3c17d55c	0.009267177
211	0x3e56c605	0.20973976
212	0x3e80f8ec	0.25189912
213	0xbda4980f	-0.080368154
214	0xbe394c34	-0.18095475
215	0xbe502f94	-0.2033065
216	0xbdb56246	-0.08856635
217	0x3e120707	0.14260493
218	0x3dac5dcf	0.0841633
219	0x3da5d39c	0.08097002
220	0xbe04a2b4	-0.12952691
221	0x3d6ff48b	0.058582824
222	0xbe166f3e	-0.14690873
223	0xbe86af65	-0.2630569
224	0xbdf58de2	-0.119899526
225	0xbd4d1d9c	-0.050077066
226	0x3ea3803e	0.3193378
227	0x3e8c3410	0.2738347
228	0xbe885114	-0.26624358
229	0xbe340ff2	-0.17584208
230	0x3eec1e20	0.46116734
231	0xbe09cf94	-0.13458091
232	0xbdca98df	-0.09892439
233	0xbe0785b2	-0.13234594
234	0x3e5d5a2c	0.21616429
235	0xbc795360	-0.015217632
236	0xbeb12fab	-0.3460668
237	0xbdd60d14	-0.10451713
238	0x3cea6ec0	0.028617263
239	0x3c8d6c3a	0.01726352
240	0xbc56dd0f	-0.013114228
241	0xbd83ba4b	-0.06432017
242	0xbc3d7c83	-0.01156533
243	0xbdf29d7c	-0.11846444
244	0x3e8432db	0.2582005
245	0x3e29d974	0.16586858
246	0xbe327a6b	-0.17429511
247	0xbc9d57e2	-0.019206945
248	0x3e62f3f2	0.2216337
249	0x3e48db6e	0.19614956
250	0x3e14cb67	0.14530717
251	0xbda8e9d7	-0.082477264
252	0xbe3bce7d	-0.18340488
253	0x3ea46907	0.3211138
254	0xbdad50cf	-0.08462679
255	0xbd323137	-0.043503966

sequential_3/dense_14/MatMul f4 [16, 32]
0	0x3e98078a	0.29693252
1	0x3ed71587	0.42008612
2	0xbeb83062	-0.35974413
3	0xbdc1a8ce	-0.09456025
4	0xbe12ec57	-0.14347969
5	0xbe80b606	-0.25138873
6	0xbdb4022a	-0.08789475
7	0x3e517d36	0.2045792
8	0xbc9051a9	-0.017617064
9	0xbdaae1d0	-0.083438516
10	0x3e3d7e4f	0.18505214
11	0x3e380ba7	0.17973195
12	0xbea76ce1	-0.32700256
13	0xbde6b8b5	-0.11265699
14	0x3ee049d7	0.43806335
15	0x3eecb007	0.46228048
16	0x3e9769bb	0.29572853
17	0x3e508dd7	0.20366608
18	0x3eb2d025	0.34924427
19	0xbbe2344e	-0.006903208
20	0x3e8d9ded	0.2765955
21	0x3cbba73f	0.022906898
22	0xbeb302d4	-0.34963095
23	0x3de05862	0.10954358
24	0xbdb49f6f	-0.08819472
25	0xbe8d086b	-0.27545485
26	0xbccd9fea	-0.025100667
27	0xbe10b649	-0.14132036
28	0x3df87754	0.12132135
29	0x3eb43bf9	0.35202006
30	0xbe0fc8b7	-0.1404141
31	0x3ddf928d	0.10916624
32	0xbe51d7c0	-0.20492458
33	0xbc9d80a3	-0.019226378
34	0xbeabfd91	-0.33591893
35	0x3e7ed1a7	0.24884664
36	0xbe626440	-0.22108555
37	0xbe84e3f0	-0.25955153
38	0x3eb96942	0.36213118
39	0x3d696217	0.05697831
40	0x3d97d7f4	0.07414237
41	0xbe5ba917	-0.21451221
42	0xbe4dcdbf	-0.20098017
43	0x3a1e784a	0.0006045146
44	0xbe1475f5	-0.14498122
45	0x3ec57416	0.3856513
46	0x3e8c06f6	0.2734906
47	0xbe7dec70	-0.24797225
48	0x3e5f669d	0.21816488
49	0x3d561f1e	0.05227577
50	0xbeac1366	-0.3360855
51	0xbeb91f88	-0.3615687
52	0x3e0d1228	0.13776457
53	0x3c951443	0.018198138
54	0xbeba60ae	-0.36401886
55	0x3eef6ec9	0.4676421
56	0x3e9fc8cc	0.31207883
57	0x3ea5c715	0.3237845
58	0x3e24025d	0.16016527
59	0x3e4503bf	0.1923971
60	0xbe8f89fe	-0.28034967
61	0x3eb7adf5	0.35874906
62	0x3ecff574	0.40616953
63	0x3eb7ce8c	0.3589977
64	0xbe42ac96	-0.19011149
65	0xbe96d1a4	-0.29456818
66	0x3f090074	0.53516316
67	0x3dcbeafb	0.09956928
68	0x3e6b1ee3	0.22961001
69	0xbe46be87	-0.19408618
70	0xbdaa3a44	-0.083118945
71	0x3e923db0	0.2856269
72	0xbe701e1b	-0.23448984
73	0xbe0fef75	-0.1405619
74	0xbe8ebf81	-0.2788048
75	0x3d241678	0.04006049
76	0xbd747cbe	-0.059689276
77	0xbd9460b9	-0.07245011
78	0xbebd3167	-0.36951753
79	0x3e3b2f3a	0.18279734
80	0xbe263a8f	-0.16233276
81	0x3d180f49	0.037123952
82	0xbe98ada4	-0.29819977
83	0xbe87609c	-0.26440895
84	0xbe3e70d4	-0.18597728
85	0xbe88e3a0	-0.26736164
86	0xbddb350a	-0.10703476
87	0xbe90fa74	-0.2831608
88	0xbe8dd959	-0.27704886
89	0x3e963ac3	0.29341707
90	0xbdbe6839	-0.09297223
91	0x3cf1c2d3	0.029511845
92	0xbe73863a	-0.23781672
93	0xbdbe5f93	-0.09295573
94	0xbe869d87	-0.2629206
95	0xbe8be912	-0.27326256
96	0x3ee9f4d6	0.45694607
97	0x3ed51015	0.41613832
98	0x3d82a101	0.06378365
99	0x3dd44e81	0.10366536
100	0x3dd7730c	0.1051999
101	0x3dd57ffc	0.10424802
102	0xbd980ac4	-0.074239284
103	0x3e06a2da	0.1314806
104	0xbdd50884	-0.10402015
105	0xbedb43e5	-0.42825237
106	0xbe9b7fbe	-0.30370897
107	0xbe7c6af8	-0.2465018
108	0xbe9e0c79	-0.3086889
109	0x3e86d5b9	0.26334932
110	0xbe0db904	-0.13840109
111	0x3ef40ec9	0.4766753
112	0xbe78e4f0	-0.24306083
113	0xbeadf491	-0.33975652
114	0x3ea4dc75	0.32199445
115	0xbdcc9823	-0.09989955
116	0xbd865028	-0.06558257
117	0xbde4121c	-0.111362666
118	0xbd87f6e1	-0.06638885
119	0x3e23c121	0.15991642
120	0x3e50b129	0.20380081
121	0x3e390a96	0.18070444
122	0xbe29ceb8	-0.16582763
123	0xbd076cc4	-0.03306271
124	0x3d149f62	0.03628481
125	0xbe950417	-0.29104683
126	0x3dd28ac4	0.10280374
127	0xbe81eb4e	-0.25374836
128	0x3c870456	0.01648156
129	0xbe59cb77	-0.21269022
130	0x3ddd9eea	0.10821326
131	0x3e8e0d11	0.27744344
132	0x3ebce5a1	0.36893943
133	0x3ea0107a	0.3126257
134	0xbdcb1f19	-0.09918041
135	0x3e04fed7	0.12987839
136	0xbe9243e7	-0.2856743
137	0x3ed2085b	0.41022
138	0x3e2c059c	0.16799015
139	0xbe33ff7e	-0.17577931
140	0xbe9f187a	-0.31073362
141	0xbea0b4ff	-0.3138809
142	0xbe4d2921	-0.2003522
143	0x3e536c1d	0.2064671
144	0x3e9cc364	0.3061782
145	0x3ee9b9e3	0.45649633
146	0x3daafc49	0.08348901
147	0x3eafa44b	0.34305033
148	0xbea01aa5	-0.31270328
149	0x3be2bf65	0.0069197887
150	0x3eac034f	0.33596274
151	0xbccf80c1	-0.02532995
152	0xbdfb1a1c	-0.12260839
153	0x3e514e3a	0.20439997
154	0x3e62a805	0.22134407
155	0x3eb3a1ab	0.3508428
156	0x3d5a95e2	0.053365596
157	0xbb0800d6	-0.0020752451
158	0xbd6b07b8	-0.057380408
159	0xbe37a84d	-0.17935295
160	0x3e4611b8	0.19342697
161	0x3eabe79b	0.33575138
162	0x3daf0e77	0.08547681
163	0xbd13afcb	-0.03605632
164	0xbe2b03c8	-0.16700661
165	0xbe84fc1a	-0.25973588
166	0xbe37ac9b	-0.17936938
167	0x3ba9d5ec	0.005182972
168	0xbdebbaf4	-0.11510268
169	0xbe72f2b3	-0.23725395
170	0xbe1e3377	-0.1544932
171	0x3e5adf7f	0.2137432
172	0xbe882976	-0.26594132
173	0xbe42fd1d	-0.19041868
174	0x3e3cf3c1	0.1845236
175	0x3d9c678c	0.076369375
176	0xbe47cceb	-0.19511764
177	0x3e29253d	0.16518112
178	0x3eb0f633	0.34562835
179	0x3e8e311f	0.2777185
180	0xbd35184f	-0.044212636
181	0xbeabedb0	-0.3357978
182	0xbe34d31f	-0.17658661
183	0x3ed1c0a6	0.40967292
184	0x3e8eee71	0.2791629
185	0x3da97dc2	0.082759395
186	0xbe3c01e6	-0.18360099
187	0x3c823848	0.015895978
188	0x3e90a749	0.28252628
189	0xbe9cec94	-0.30649245
190	0xbe4c1d0a	-0.19932953
191	0xbddcb55a	-0.107767776
192	0x3e3ad4b1	0.18245198
193	0x3ee70ac8	0.45125413
194	0xbeba3597	-0.3636901
195	0x3d7cc337	0.06170961
196	0xbe2eed79	-0.17082776
197	0x3da2a8ff	0.0794239
198	0xbe5fcdd9	-0.21855868
199	0xbe769b7a	-0.24082747
200	0xbe0c0dcf	-0.13677143
201	0xbe87761a	-0.26457292
202	0xbb5f052e	-0.0034030187
203	0x3d6fb2b3	0.05852003
204	0xbda56670	-0.08076179
205	0xbe80e4ab	-0.2517446
206	0xbe751d7c	-0.23937029
207	0x3e0c64b7	0.13710295
208	0xbe0aeac0	-0.13566113
209	0xbeaf33e0	-0.34219265
210	0x3cd23867	0.02566166
211	0x3d3145a6	0.043279313
212	0xbdff65c8	-0.12470585
213	0x3daa7658	0.083233535
214	0xbeaad973	-0.33369026
215	0xbe6b1f23	-0.22961096
216	0x3e6c2d5d	0.2306418
217	0x3e988e21	0.29795936
218	0x3e977c04	0.29586804
219	0x3e3c229f	0.18372582
220	0x3e6973e0	0.22798109
221	0xbe339926	-0.1753889
222	0x3ed10d7d	0.40830603
223	0x3e2a39f8	0.16623676
224	0x3ee70a8c	0.45125234
225	0x3eb8417e	0.35987467
226	0xbe80d336	-0.2516114
227	0x3e91448f	0.2837262
228	0xbe40cd7d	-0.18828388
229	0x3d038250	0.032106698
230	0xbd8183db	-0.063239776
231	0x3dc0d6da	0.0941598
232	0x3d03bdb0	0.032163322
233	0xbe97a8a0	-0.29620838
234	0xbd40b8a7	-0.0470511
235	0x3cc0f3b0	0.0235537
236	0x3e154a81	0.14579202
237	0x3eb991f4	0.36244166
238	0x3e1f3f2c	0.15551442
239	0x3eb6e74c	0.3572334
240	0xbe050b08	-0.1299249
241	0xbdffc7ae	-0.12489258
242	0x3e0c84c3	0.1372252
243	0xbe891de3	-0.26780614
244	0x3f054638	0.5206027
245	0xbe17c306	-0.1482049
246	0xbc68a47e	-0.014199374
247	0x3ede10b2	0.43372113
248	0xbcc3d1a6	-0.02390368
249	0xbaa0251f	-0.0012218094
250	0xbdcaa6eb	-0.09895118
251	0xbc585ede	-0.013206212
252	0x3e91dfb3	0.2849098
253	0x3d261ac9	0.040552888
254	0x3eef0ce2	0.46689516
255	0x3cb02331	0.021501156

sequential_3/dense_15/MatMul f4 [2, 16]
0	0xbf175b03	-0.5912325
1	0xbf202ed3	-0.6257145
2	0x3dfdcb01	0.123922355
3	0xbe32a2bd	-0.17444892
4	0x3e6173d1	0.22016837
5	0xbef3418c	-0.47510946
6	0x3e0cc1b2	0.13745764
7	0xbebcbee6	-0.36864394
8	0x3e5c9f9d	0.21545263
9	0xbcc142e8	-0.023591474
10	0x3ed5dfa2	0.4177218
11	0x3f32c8ca	0.6983763
12	0xbf199a79	-0.6000133
13	0x3e740ebb	0.23833744
14	0x3ebc1c08	0.36740136
15	0x3edcf350	0.43154383
16	0xbe1b8837	-0.1518868
17	0x3e308219	0.17237128
18	0xbee9885f	-0.45611855
19	0x3e8dd743	0.27703294
20	0xbf083a26	-0.5321373
21	0x3ddd140d	0.1079484
22	0x3f1bf252	0.60916626
23	0x3d93d0ec	0.07217583
24	0x3f4a2bab	0.7897288
25	0x3f365b4d	0.71233064
26	0xbeadad43	-0.3392125
27	0xbd4ee7df	-0.0505141
28	0xbe71450f	-0.235615
29	0xbe3e35f3	-0.18575267
30	0x3f1eec0b	0.62078923
31	0x39ec2074	0.00045037607
