model/keypoint_classifier/keypoint_classifier.tflite (tflite, 7600 bytes, 8 tensors)

sequential_35/dense_107/MatMul f4 [2, 16]
000000 8e fc 46 3f 9e b4 05 3f 62 b2 70 3e 9f 0e 2d 3e
       0.7772912 0.52228725 0.23505548 0.16900109
000010 ee 4c 80 be e8 6a 10 3f 8f 03 8b be 63 b6 5c bf
       -0.25058693 0.56413126 -0.27151152 -0.862158
000020 3d b5 18 3f 70 4d 3a 3f ee 9a b8 3d 46 e4 cf bd
       0.5965155 0.7277441 0.090139255 -0.101509616
000030 8e ae 44 be 11 7d 2c bf eb 5f 76 3d 8c 1a c7 3e
       -0.19207212 -0.67378336 0.06015007 0.3888744
000040 4e c4 1d bf 40 21 42 bc 8e 73 e9 be cf 43 b4 be
       -0.6162766 -0.011848748 -0.45595974 -0.35207984
000050 1c fa c7 3e e5 5c ea 3e 03 96 fa 3e a9 6c fa 3e
       0.39058006 0.45773998 0.48942575 0.48911026
000060 4a c7 76 be 1f 6a 9f 3e 1f 68 0c 3f ea 06 39 bf
       -0.2409946 0.3113565 0.54846376 -0.72276175
000070 ce fe 35 bf df 2c 9a 3e f1 dd 39 bf 42 8c c7 3d
       -0.71091926 0.3011236 -0.7260428 0.09743549

sequential_35/dense_106/MatMul f4 [16, 32]
000000 72 03 50 3e 3a 8c 9a be 1a b7 45 be 8a 72 64 3d
       0.20313814 -0.3018511 -0.19308129 0.055773295
000010 c4 ad 37 bd 45 c5 19 3e 23 6c c8 be d4 95 8b 3e
       -0.04484345 0.15016659 -0.39145002 0.27262747
000020 64 23 87 be 94 39 e3 bd bf 6d 6c 3d 1f df a8 3e
       -0.26394188 -0.110949665 0.05772185 0.32982728
000030 6f ae e4 3e 92 77 c1 bd 0d 9c 60 3e ed 6e e8 bd
       0.44664332 -0.09446634 0.21934529 -0.113492824
000040 8b 51 25 3d c3 bc 9e 3e 33 43 f1 be 8e 5a 0a 3e
       0.04036097 0.3100339 -0.4712158 0.13511106
000050 30 f9 85 be f1 29 72 be 96 78 0f bd 5e 4d 54 3e
       -0.26166677 -0.23648812 -0.03502711 0.20732638
000060 2c 17 3a 3e 43 8a a8 be 2f 19 e1 3d 90 eb f5 bb
       0.18172902 -0.32917985 0.109911315 -0.007504888
000070 da 2a ba be a4 a0 52 be b5 9c dd 3e b4 ff a2 3d
       -0.36360818 -0.20569092 0.4328362 0.07958928
000080 f5 0c 40 be 80 d5 51 3d 98 a7 2e 3d c1 22 94 be
       -0.18754943 0.051229 0.0426403 -0.28932765
000090 8a 3b 5c 3e 08 ac 51 3d c8 b0 25 bd 96 d0 d4 bd
       0.21507087 0.051189452 -0.040451795 -0.10391347
0000a0 c1 75 b1 be 16 94 69 be 01 74 b4 be a0 d4 ff bd
       -0.34660152 -0.22810397 -0.35244754 -0.12491727
0000b0 d2 88 75 be d8 06 2d 3d 88 cd bf bd 1d 14 9b be
       -0.23977974 0.042242855 -0.09365374 -0.30288783
0000c0 f4 9b bc 3d 0e 10 ed bd a2 1e 5e 3e ae ad 81 be
       0.09209433 -0.11575328 0.21691373 -0.2532782
0000d0 c0 35 79 3d 90 56 9d 3d 56 1c 16 3e e4 87 ae be
       0.060842276 0.07682526 0.14659247 -0.3408805
0000e0 50 a8 6e bd 5a 21 a9 be e6 95 31 3e d1 b7 ac be
       -0.058265984 -0.33033258 0.17342338 -0.3373399
0000f0 f1 4c b3 be 6a d9 8f be 00 fd d7 ba b2 b8 5e 3e
       -0.3501964 -0.2809556 -0.0016478598 0.21750143
000100 ca 54 a3 3c 2a 1b 6b be 35 c6 87 be f9 b4 b8 be
       0.019937892 -0.22959581 -0.26518407 -0.3607557
000110 a9 06 4b 3e ba 22 e9 be f1 f2 dc bc 8a c7 93 3e
       0.1982676 -0.45534307 -0.026971312 0.28863174
000120 14 76 5d 3e 45 dd e9 bd b3 aa 0d 3e ab 72 43 3d
       0.21627074 -0.11419157 0.13834648 0.047716778
000130 2c fa 53 3e bf 12 4f bd 71 ba 79 3e 06 d7 32 3e
       0.20700902 -0.050554987 0.24387528 0.17464837
000140 8b 03 8d 3e 95 2b fc 3e 46 1d 7e be 09 4b 1b 3c
       0.27541766 0.49252 -0.24815854 0.009478339
000150 81 45 6c be 33 98 5c 3e 30 e8 1d 3e 59 73 df 3e
       -0.23073389 0.21542434 0.15420604 0.4364269
000160 b5 28 a3 3e 3e d4 90 bd 9e 7d a8 3e 8d 76 7d bd
       0.31866995 -0.07071732 0.32908338 -0.061880637
000170 9e f3 ca bb 99 d7 4b be 1d 7d 9a 3e d4 89 06 3f
       -0.006193592 -0.19906463 0.3017358 0.5255406
000180 5b 57 66 3d cb 4c fb bc f0 46 05 be 7a 69 db 3d
       0.056235652 -0.030676266 -0.13015342 0.107134774
000190 85 da 2f 3e 7a 0d 2c bd b7 55 5f 3d fe 00 07 3f
       0.17173202 -0.04200504 0.054525103 0.5273589
0001a0 63 20 06 3f ea 54 66 bd ef ea 1c 3e a7 61 3f be
       0.5239317 -0.056233324 0.15323995 -0.18689595
0001b0 24 2e 32 be 87 ca 9e 3e 4b 82 a8 3e 52 09 a0 be
       -0.17400414 0.3101389 0.32911906 -0.3125711
0001c0 26 18 fa 3e 3b 81 85 3e d3 ba 11 3e fc a1 d0 3e
       0.4884655 0.26075158 0.14231424 0.40748584
0001d0 db 46 66 be 61 ae 09 be 26 0b ad 3e f8 8f 90 3e
       -0.22487967 -0.13445427 0.33797568 0.2823484
0001e0 df a8 ba 3e 05 52 7c be 6a ed 3c 3e 9f d1 d2 be
       0.36456963 -0.24640663 0.18449941 -0.41175553
0001f0 f1 8a 90 be 9f da be be cc 34 3f be 6a f1 55 3e
       -0.28231004 -0.3727617 -0.18672484 0.20892873
000200 85 8c df 3d bf 46 7c 3e a7 1a 14 3e a7 b7 1f bc
       0.10915474 0.24636362 0.14463292 -0.009748376
000210 c9 ae 07 bd 70 94 27 3e d9 a6 04 3f 6b 05 98 be
       -0.033125672 0.16365218 0.5181709 -0.29691634
000220 2f 92 c1 be 02 67 2b 3e 6d 0e b5 bd f0 14 65 bd
       -0.37806842 0.16738513 -0.08840642 -0.05592817
000230 26 51 92 3e 1d 98 82 3d f2 a6 02 bf 46 8b bd 3e
       0.28577536 0.063766696 -0.5103599 0.3702032
000240 09 40 d1 be 70 02 57 3d fe 91 f2 3e 9b 6d 74 be
       -0.40869167 0.05249256 0.47377008 -0.23869936
000250 d9 8a 72 3d f3 1f 5b 3e 80 7e 52 bd 8d 83 01 3e
       0.059214447 0.21398906 -0.05139017 0.12647839
000260 7b 63 75 be 64 c3 bf 3e e6 64 19 3e 0e 46 b6 3e
       -0.2396373 0.3745376 0.14979896 0.35600322
000270 f1 5b 09 3f 10 26 4f 3e 54 f2 1a 3e 81 0d 0b bf
       0.53655916 0.20229363 0.15131503 -0.5431748
000280 fc 17 91 bd 39 7a b3 3e 8c 8a e3 3d 70 8a 0d 3e
       -0.07084653 0.35054186 0.1111041 0.13822341
000290 70 bd 69 bc 0a 72 29 be 34 94 b5 bc d5 19 da bd
       -0.014266357 -0.16547409 -0.022165395 -0.10649458
0002a0 c4 7c 71 3e 49 40 8d 3e 0a 86 f4 3d f0 69 21 be
       0.2358275 0.27588108 0.119396284 -0.15763068
0002b0 50 a1 83 3d f5 d2 20 bd 4e 50 ce bd b1 41 26 3e
       0.06427252 -0.039263684 -0.10073911 0.16235997
0002c0 16 80 e8 3e c0 d3 da 3e 18 de d2 3d 0c fa b8 bc
       0.45410222 0.42739677 0.10296267 -0.02258017
0002d0 f5 1b 5b be 46 d3 1f 3e 19 27 86 3d 88 a9 42 be
       -0.21397384 0.15607938 0.06550426 -0.19009984
0002e0 f2 0a 5a bd 18 2a dc bd b5 4b db bd 5d 40 1d 3c
       -0.053233095 -0.10750216 -0.10707799 0.009597865
0002f0 a2 c6 5c be 0d ec fe bd 95 02 4a be b1 be eb 3e
       -0.21560147 -0.12447367 -0.19727547 0.46043923
000300 7e 7d b3 bd c3 ab 8a be cc 7f c3 3e b5 f3 f6 3e
       -0.0876417 -0.2708417 0.3818344 0.4823281
000310 df 52 01 bf c8 c3 8b 3e ce f2 1f 3f 26 6b d9 be
       -0.50517076 0.27297807 0.62479866 -0.4246456
000320 12 c0 af be 12 20 c7 3e 52 dd 40 3e 6b 66 60 be
       -0.34326226 0.38891655 0.18834427 -0.2191407
000330 1e 78 8a bd 0c 9d bc 3e f5 8c fe bc 72 8b fc 3d
       -0.06761192 0.36838567 -0.031073073 0.123312846
000340 1a ee 34 bd 08 2b 0b 3e bf 8c d4 3d 21 8c f0 be
       -0.044172384 0.13590634 0.10378408 -0.4698191
000350 64 fc 51 3e 1e 40 be bd 4a 45 d2 be 7b a2 0b 3e
       0.20506436 -0.09289573 -0.41068488 0.136362
000360 31 b3 2a be 53 49 d0 3e 9c 78 b4 bd 67 4a b1 3d
       -0.16669919 0.40680942 -0.08812067 0.08656769
000370 7b 10 40 3d 0d 1e ab 3e 47 89 29 3e e6 d8 a1 be
       0.046890717 0.33421364 0.16556273 -0.31610793
000380 00 8b 9a 3e 97 ab 65 ba 99 c5 7b 3e 74 c4 a1 3e
       0.30184174 -0.00087612256 0.24587096 0.31595194
000390 fc 20 40 3e c1 fa f7 3e ae ad 1c 3e 8d bd 9c bd
       0.18762583 0.48433498 0.15300629 -0.076533414
0003a0 1d 2b 14 3e 16 41 ff 3d 39 3b 9d 3d 7f f9 64 bd
       0.14469571 0.12463586 0.076773115 -0.055902
0003b0 4c b5 23 be 96 60 16 be 16 0b 80 bd 64 45 a4 3e
       -0.15987128 -0.14685282 -0.062521145 0.3208419
0003c0 a4 5f e6 be 30 f7 ad be fb ba 39 3f 51 f0 a2 be
       -0.44994843 -0.33977652 0.72550935 -0.31823972
0003d0 db ad bb 3e 0f 03 d2 be 13 aa e7 bd 4a 32 4a 3c
       0.3665608 -0.4101796 -0.11311736 0.012341091
0003e0 95 5b 50 be de 0f 2a bd d7 49 ec 3e 3a 99 42 bd
       -0.20347436 -0.04151904 0.46150085 -0.04750941
0003f0 aa 46 c2 3e 97 90 1c 3f e3 af ca bc 96 7d 05 be
       0.37944537 0.61158127 -0.024742072 -0.13036188

sequential_35/dense_107/BiasAdd/ReadVariableOp f4 [2]
000000 44 5a a5 bc 54 5a a5 3c
       -0.020184644 0.020184673

sequential_35/dense_106/BiasAdd/ReadVariableOp f4 [16]
000000 bd 4f b5 3d 00 00 00 00 49 22 9f 3d bf 8b ec 3c
       0.088530995 0.0 0.07770211 0.02887523
000010 d1 11 9e 3d 26 54 52 bb a2 aa 40 3d 8c 95 1d 3e
       0.07718242 -0.0032093613 0.047037728 0.15389079
000020 2c ea 29 bb 06 f9 a4 3d 11 dd 9c 3d 2b e2 57 3d
       -0.002592693 0.0805531 0.076593526 0.052705925
000030 a2 95 92 3d 1d 6c 67 3d c1 17 81 3a 9d db a8 3b
       0.071574464 0.05649959 0.0009848998 0.005153133

sequential_35/dense_105/BiasAdd/ReadVariableOp f4 [32]
000000 c0 7e 4e bc ac f2 62 bd 1b 72 54 3d 33 17 98 3d
       -0.012603462 -0.05540721 0.051866632 0.074263
000010 c0 5e 01 3e 33 9b a7 3d 13 12 a9 3d 41 1e d7 3d
       0.126338 0.08183899 0.082554005 0.10503817
000020 bb 56 a4 3d 07 63 82 3d bb 0a 95 3d 68 8b 1b 3e
       0.08024355 0.06366544 0.07277437 0.15189898
000030 be 8e f3 3d 5f a9 49 3d 90 fd 88 3d 14 cc 20 3d
       0.1189246 0.04923379 0.06688988 0.039257124
000040 68 17 29 3d 51 1e d4 3d 6a b3 8b bc 17 7e 8f 3c
       0.041282088 0.10357345 -0.017053325 0.017516179
000050 e4 7a 4b 3d 76 9e 39 bd f3 55 b9 bc c4 fc ed 3d
       0.049677745 -0.045317136 -0.022623992 0.11620477
000060 3c 12 46 3c d0 f6 13 3d 4f 55 03 3c 4f a5 98 3b
       0.012089308 0.03612405 0.008015945 0.004658378
000070 df 98 87 3c 47 33 7a bd 89 9a a8 3d ae 40 55 3d
       0.016552387 -0.061084058 0.082326 0.052063636

sequential_35/dense_104/BiasAdd/ReadVariableOp f4 [32]
000000 b3 26 20 3c 89 bb 70 bd 97 ff 59 3d b7 73 3d 3d
       0.009774852 -0.058772597 0.053222265 0.046252932
000010 d2 21 14 3d 90 74 14 3c 33 90 b8 3d ea e5 73 3d
       0.036165066 0.009060994 0.09011879 0.059545435
000020 2a ff bd 3c 14 37 30 3e 5a 28 b6 bc fa e0 82 3d
       0.02319296 0.1720851 -0.022236038 0.06390567
000030 cc b7 15 3d fe e9 ed 3c 16 2d ca 3c 3c a9 13 3c
       0.036552235 0.02904224 0.024679702 0.009012517
000040 38 8d 30 bc 99 29 b1 bc 6a 6e 7b 3d f7 30 9a 3d
       -0.010775857 -0.02162628 0.061384596 0.075288706
000050 e7 59 05 bc e9 f2 aa 3d 7a 55 e1 3c ec 67 0d 3c
       -0.00813911 0.08347113 0.027506579 0.008630734
000060 83 bd 70 3d dc 1d b3 3d a9 c8 a0 3c 41 27 1b 3d
       0.058774482 0.087459296 0.019626932 0.037879232
000070 57 c3 54 3d cf 5c 6d 3b c1 91 c0 ba 2c b4 9f 3c
       0.051944103 0.0036218648 -0.0014691876 0.019495092

sequential_35/dense_104/MatMul i1 [32, 42] scale=0.004313684 zero_point=0
000000 3a e0 24 42 e1 f6 e0 fc b9 40 02 36 2f cc 0c eb
       0.2501937 -0.13803789 0.15529263 0.28470314 -0.13372421 -0.043136843 -0.13803789 -0.017254736 -0.30627158 0.27607578 0.008627368 0.23293895 0.20274316 -0.22431158 0.05176421 -0.09058736
000010 f3 09 03 d0 23 ce 0c db 40 30 24 ee e0 17 d4 c4
       -0.056077894 0.038823158 0.012941052 -0.20705684 0.15097894 -0.2156842 0.05176421 -0.15960631 0.27607578 0.20705684 0.15529263 -0.077646315 -0.13803789 0.09921473 -0.1898021 -0.25882104
000020 57 24 d9 11 0c 1d f8 e0 0c 17 22 c4 a4 ab f0 d3
       0.3752905 0.15529263 -0.16823368 0.07333263 0.05176421 0.12509684 -0.034509473 -0.13803789 0.05176421 0.09921473 0.14666526 -0.25882104 -0.39685893 -0.36666316 -0.069018945 -0.19411579
000030 c9 b2 c5 b5 e7 21 ca d0 ed cd 15 e0 bd d9 2e d2
       -0.23725262 -0.33646736 -0.25450736 -0.3235263 -0.1078421 0.14235157 -0.23293895 -0.20705684 -0.08196 -0.21999788 0.09058736 -0.13803789 -0.28901684 -0.16823368 0.19842947 -0.19842947
000040 f6 53 11 0b e3 d2 b6 48 31 01 09 2e ac 03 d6 e8
       -0.043136843 0.35803577 0.07333263 0.047450524 -0.12509684 -0.19842947 -0.31921262 0.31058526 0.21137051 0.004313684 0.038823158 0.19842947 -0.36234945 0.012941052 -0.18117473 -0.10352842
000050 22 e8 f5 f9 d2 24 08 20 ee 28 3a e8 4c fb ff db
       0.14666526 -0.10352842 -0.047450524 -0.030195788 -0.19842947 0.15529263 0.034509473 0.13803789 -0.077646315 0.17254737 0.2501937 -0.10352842 0.32784 -0.021568421 -0.004313684 -0.15960631
000060 d3 d2 08 03 ec 30 2f 17 e8 e4 c8 2b ce 44 ba cd
       -0.19411579 -0.19842947 0.034509473 0.012941052 -0.086273685 0.20705684 0.20274316 0.09921473 -0.10352842 -0.12078315 -0.2415663 0.18548842 -0.2156842 0.29333052 -0.30195788 -0.21999788
000070 05 c5 f5 1f 0b 42 13 f5 33 06 ba f4 ff 7f 06 c6
       0.021568421 -0.25450736 -0.047450524 0.13372421 0.047450524 0.28470314 0.08196 -0.047450524 0.21999788 0.025882104 -0.30195788 -0.05176421 -0.004313684 0.54783785 0.025882104 -0.2501937
000080 ff be f9 cf 28 0f 5d de f6 15 2e c2 41 ed eb 05
       -0.004313684 -0.28470314 -0.030195788 -0.21137051 0.17254737 0.06470526 0.4011726 -0.14666526 -0.043136843 0.09058736 0.19842947 -0.26744843 0.28038946 -0.08196 -0.09058736 0.021568421
000090 40 b5 58 02 35 26 cb 44 fd 00 01 e6 e7 d7 bf 30
       0.27607578 -0.3235263 0.3796042 0.008627368 0.22862525 0.16392 -0.22862525 0.29333052 -0.012941052 0.0 0.004313684 -0.11215579 -0.1078421 -0.17686105 -0.28038946 0.20705684
0000a0 f1 cb 55 99 50 16 04 d6 c7 f4 3b 4d fa d1 3d d8
       -0.06470526 -0.22862525 0.36666316 -0.44430947 0.34509474 0.09490105 0.017254736 -0.18117473 -0.24588 -0.05176421 0.25450736 0.33215368 -0.025882104 -0.20274316 0.26313472 -0.17254737
0000b0 cf 1f c2 ec 2f ee bf 10 2a 49 08 fd fa d8 0f c6
       -0.21137051 0.13372421 -0.26744843 -0.086273685 0.20274316 -0.077646315 -0.28038946 0.069018945 0.18117473 0.31489894 0.034509473 -0.012941052 -0.025882104 -0.17254737 0.06470526 -0.2501937
0000c0 ce 5a 07 07 24 2e c5 3f fe 19 f5 b2 08 fd c6 5b
       -0.2156842 0.38823158 0.030195788 0.030195788 0.15529263 0.19842947 -0.25450736 0.2717621 -0.008627368 0.1078421 -0.047450524 -0.33646736 0.034509473 -0.012941052 -0.2501937 0.39254525
0000d0 cf 40 bf 3e 4f 36 16 50 db 4d 2c e8 f6 f9 f3 f1
       -0.21137051 0.27607578 -0.28038946 0.26744843 0.34078103 0.23293895 0.09490105 0.34509474 -0.15960631 0.33215368 0.1898021 -0.10352842 -0.043136843 -0.030195788 -0.056077894 -0.06470526
0000e0 d5 c6 3c d0 25 3d 10 ec 1e c5 d0 bd 2b 0b 17 30
       -0.18548842 -0.2501937 0.25882104 -0.20705684 0.15960631 0.26313472 0.069018945 -0.086273685 0.12941052 -0.25450736 -0.20705684 -0.28901684 0.18548842 0.047450524 0.09921473 0.20705684
0000f0 01 2d de bc e5 2c f1 4f b5 27 cf cb f0 2a cc eb
       0.004313684 0.19411579 -0.14666526 -0.29333052 -0.11646947 0.1898021 -0.06470526 0.34078103 -0.3235263 0.16823368 -0.21137051 -0.22862525 -0.069018945 0.18117473 -0.22431158 -0.09058736

sequential_35/dense_105/MatMul i1 [32, 32] scale=0.0042837444 zero_point=0
000000 1d 26 d8 c4 37 c0 38 c7 fb 56 30 2b 12 27 16 1f
       0.12422859 0.16278228 -0.17134978 -0.25702468 0.23560594 -0.27415964 0.23988968 -0.24417342 -0.021418722 0.368402 0.20561972 0.184201 0.0771074 0.16706604 0.09424238 0.13279608
000010 ec c3 25 3b 05 ec 19 cf e5 f2 d8 29 d1 00 ab e2
       -0.08567489 -0.2613084 0.15849854 0.25274092 0.021418722 -0.08567489 0.10709361 -0.20990348 -0.1156611 -0.05997242 -0.17134978 0.17563352 -0.20133598 0.0 -0.36411828 -0.12851234
000020 2a 1c cf b4 ef 0a 11 1a 11 b0 cf f7 42 f6 07 21
       0.17991726 0.11994484 -0.20990348 -0.32556456 -0.07282365 0.042837445 0.07282365 0.11137735 0.07282365 -0.34269956 -0.20990348 -0.0385537 0.28272712 -0.042837445 0.02998621 0.14136356
000030 f2 40 1f 31 d4 d1 ca b3 29 17 2e e6 4d 00 d2 31
       -0.05997242 0.27415964 0.13279608 0.20990348 -0.18848476 -0.20133598 -0.2313222 -0.32984832 0.17563352 0.09852612 0.19705224 -0.11137735 0.32984832 0.0 -0.19705224 0.20990348
000040 cc fa 1a 0d dc a4 c7 29 bc 8e f2 2a f0 18 d1 ac
       -0.2227547 -0.025702465 0.11137735 0.055688675 -0.1542148 -0.39410448 -0.24417342 0.17563352 -0.2912946 -0.48834684 -0.05997242 0.17991726 -0.06853991 0.10280986 -0.20133598 -0.35983452
000050 43 23 45 66 1e ae 25 4a b1 48 0b 01 00 40 0f 38
       0.28701088 0.14993106 0.29557836 0.43694192 0.12851234 -0.35126704 0.15849854 0.31699708 -0.3384158 0.3084296 0.04712119 0.0042837444 0.0 0.27415964 0.06425617 0.23988968
000060 3d 24 17 3c e5 c7 f5 eb b9 ca 3d 29 1d d5 f4 f2
       0.2613084 0.1542148 0.09852612 0.25702468 -0.1156611 -0.24417342 -0.04712119 -0.08995863 -0.30414584 -0.2313222 0.2613084 0.17563352 0.12422859 -0.184201 -0.05140493 -0.05997242
000070 e4 e6 40 56 1a e4 28 f1 9e 4c 0a 29 03 69 28 37
       -0.11994484 -0.11137735 0.27415964 0.368402 0.11137735 -0.11994484 0.17134978 -0.06425617 -0.41980696 0.32556456 0.042837445 0.17563352 0.012851233 0.44979316 0.17134978 0.23560594
000080 35 e9 22 c9 e9 6c c4 21 fe 4b c3 28 48 07 15 f6
       0.22703846 -0.09852612 0.1456473 -0.23560594 -0.09852612 0.4626444 -0.25702468 0.14136356 -0.008567489 0.32128084 -0.2613084 0.17134978 0.3084296 0.02998621 0.08995863 -0.042837445
000090 e8 f1 1d ce 0b 11 2b e7 65 0c e8 0b f7 18 f0 f7
       -0.10280986 -0.06425617 0.12422859 -0.21418722 0.04712119 0.07282365 0.184201 -0.10709361 0.4326582 0.05140493 -0.10280986 0.04712119 -0.0385537 0.10280986 -0.06853991 -0.0385537
0000a0 cc 10 c3 5f 18 d2 3f e9 f5 ce 30 e7 19 db fb d8
       -0.2227547 0.06853991 -0.2613084 0.40695572 0.10280986 -0.19705224 0.26987588 -0.09852612 -0.04712119 -0.21418722 0.20561972 -0.10709361 0.10709361 -0.15849854 -0.021418722 -0.17134978
0000b0 45 d3 58 59 f8 aa 59 1e ca 48 d4 07 f4 60 55 06
       0.29557836 -0.1927685 0.37696952 0.38125324 -0.034269955 -0.368402 0.38125324 0.12851234 -0.2313222 0.3084296 -0.18848476 0.02998621 -0.05140493 0.41123945 0.36411828 0.025702465
0000c0 d2 32 c2 09 1f f9 46 e5 cb bf 60 05 af 01 ee 1f
       -0.19705224 0.21418722 -0.26559216 0.0385537 0.13279608 -0.02998621 0.29986212 -0.1156611 -0.22703846 -0.2784434 0.41123945 0.021418722 -0.34698328 0.0042837444 -0.0771074 0.13279608
0000d0 e6 f1 48 3e d1 e9 1f 26 d7 ee 38 f3 d9 2a 37 62
       -0.11137735 -0.06425617 0.3084296 0.26559216 -0.20133598 -0.09852612 0.13279608 0.16278228 -0.17563352 -0.0771074 0.23988968 -0.055688675 -0.16706604 0.17991726 0.23560594 0.41980696
0000e0 1f e0 2d a2 3a 39 f0 14 4f 01 18 0b f6 09 44 5d
       0.13279608 -0.13707982 0.1927685 -0.40267196 0.24845718 0.24417342 -0.06853991 0.08567489 0.3384158 0.0042837444 0.10280986 0.04712119 -0.042837445 0.0385537 0.2912946 0.39838824
0000f0 e5 2f f4 c8 d2 4b d4 f2 39 32 50 12 49 f8 ad 0b
       -0.1156611 0.20133598 -0.05140493 -0.23988968 -0.19705224 0.32128084 -0.18848476 -0.05997242 0.24417342 0.21418722 0.34269956 0.0771074 0.31271333 -0.034269955 -0.3555508 0.04712119
